saved_models/black_scholes_model.pth (torch, 20480 bytes, 5 tensors)

net.0.weight f4 [64, 2]
0	0x3ed69d6b	0.41916975
1	0xbe515a07	-0.20444499
2	0x3f28e700	0.6597748
3	0xbef01175	-0.4688832
4	0xbc1a9cf2	-0.009436833
5	0x3e1b290c	0.15152377
6	0x3c2d0236	0.010559609
7	0xbe897629	-0.26847962
8	0xbf9f03f6	-1.2423084
9	0xbdfac8e7	-0.1224535
10	0x3be59c9f	0.007007196
11	0x3e3f8c3b	0.18705837
12	0xbf06076f	-0.5235509
13	0x3d36d5be	0.044637434
14	0x3c260a98	0.010134362
15	0xbe124c28	-0.14286864
16	0x3f82089b	1.0158876
17	0x3e4079f6	0.18796524
18	0x3c175c47	0.009238309
19	0xbe06fc60	-0.13182211
20	0xbf6802a7	-0.9062905
21	0x3ea8d4dd	0.32974902
22	0x3c16e621	0.00921014
23	0xbc992adc	-0.018697195
24	0x3b138678	0.002251057
25	0x3f60bb0c	0.8778541
26	0xbf16cb1d	-0.58903676
27	0x3ea126b5	0.31474844
28	0x3f783703	0.9695894
29	0x3eb86af7	0.36019108
30	0xbfa40e43	-1.2816852
31	0xbe9665e8	-0.29374623
32	0xbc3ca498	-0.011513852
33	0x3ebe877b	0.37212738
34	0x3f95eab2	1.1712248
35	0x3e5f84c5	0.21827991
36	0x3f348143	0.7050974
37	0x3e927247	0.28602812
38	0x3d07bf51	0.033141438
39	0xbd657a08	-0.05602458
40	0xbca98e55	-0.020697752
41	0x3f911294	1.1333795
42	0xbc2aef08	-0.010432966
43	0x3e887ecf	0.26659247
44	0x3c6e9c6f	0.014563664
45	0xbf6524f3	-0.89509505
46	0xbb078ac9	-0.0020682088
47	0x3fc5f31b	1.5464815
48	0xbb4a5c0a	-0.0030877613
49	0xbf5dbc1e	-0.8661517
50	0xbf34102f	-0.70337194
51	0x3ea173e4	0.3153373
52	0xbb7f7738	-0.0038980972
53	0x3fc71a66	1.5554931
54	0xbefbecf5	-0.4920422
55	0xbd9700fc	-0.07373235
56	0xbf7298a9	-0.9476419
57	0x3e9435bf	0.28947255
58	0xbf3d77c2	-0.7401086
59	0x3ea4d370	0.32192564
60	0x3bdc0866	0.0067148684
61	0x3e31fa7e	0.17380711
62	0x3f5c101b	0.85962075
63	0x3f2b760d	0.66977006
64	0xbc175de6	-0.009238696
65	0x3e261ed1	0.16222693
66	0x3c8ebf48	0.017425194
67	0xbfada2eb	-1.3565344
68	0x3c043005	0.008068089
69	0xbd703915	-0.058648188
70	0x3c11375e	0.008863298
71	0xbe183e37	-0.14867483
72	0x3f32441c	0.69635177
73	0xbea5c069	-0.3237336
74	0xbccd3b6c	-0.025052749
75	0x3fb2e707	1.3976754
76	0xbbcadb8b	-0.0061907223
77	0xbf25469a	-0.64560854
78	0xbf6ad8da	-0.9173714
79	0x3ccc35c9	0.02492799
80	0x3ee41530	0.44547415
81	0xbe6217bf	-0.22079371
82	0xbb97b4d5	-0.004629711
83	0xbea6b8fb	-0.32563004
84	0xbbbaab91	-0.005696722
85	0xbf0cb88e	-0.5496911
86	0xbbc14837	-0.0058985013
87	0x3fffb7fc	1.9978023
88	0xbc9b219b	-0.018936923
89	0x4021a4f7	2.5256937
90	0xbf466881	-0.7750321
91	0x3e10faa5	0.14158113
92	0xbf20ee68	-0.6286378
93	0xbed46c1b	-0.41488728
94	0x3d31d02b	0.043411415
95	0xbeeb4800	-0.4595337
96	0xbef6a9ae	-0.4817633
97	0xbefcd144	-0.49378407
98	0xbc35a6ef	-0.011087163
99	0x3ec8a362	0.3918715
100	0xbc07ff21	-0.008300574
101	0x3d9b1a3b	0.075733624
102	0xbc4639aa	-0.012098709
103	0x3f028219	0.50979763
104	0x3f325d7f	0.69673914
105	0x3f8868d2	1.0656989
106	0x3b89f257	0.0042097974
107	0x3f088f53	0.53343695
108	0xbf130d6f	-0.57442373
109	0xbf09c5f7	-0.53817695
110	0x3c570176	0.013122907
111	0xbf4cc5af	-0.7998914
112	0x3f75d080	0.9602127
113	0xbecc2eaf	-0.39879367
114	0x3f354181	0.70803076
115	0xbcada7bf	-0.021198152
116	0xbc590ad3	-0.01324721
117	0x3f0e1070	0.5549383
118	0x3cb030d9	0.021507667
119	0xbf9599d1	-1.1687566
120	0xbf85fce5	-1.0467802
121	0xbf2c303e	-0.6726111
122	0xbf27e318	-0.6558089
123	0xbf2fdef9	-0.68699604
124	0x3bcf0c07	0.0063185724
125	0x3ef061bd	0.46949568
126	0x3c10d0d2	0.008838849
127	0xbd312ccc	-0.043255612

net.0.bias f4 [64]
0	0x3f162050	0.58643055
1	0x3ebf18a2	0.3732348
2	0x3f603cc7	0.8759274
3	0xbfc9d315	-1.5767542
4	0xbff9ea81	-1.952469
5	0xbfd95ebb	-1.6982034
6	0xbed74b70	-0.42049742
7	0xbfd1107c	-1.6333156
8	0x3fe08d03	1.7543033
9	0xbfa6c31f	-1.3028296
10	0xbfa393bd	-1.2779461
11	0xbf8c98b6	-1.0984104
12	0xbf1ae1d9	-0.60500866
13	0xbeb4a63d	-0.3528308
14	0x3fad9522	1.3561137
15	0xbfd99de6	-1.7001312
16	0x3fc56650	1.5421848
17	0x3facf6c2	1.3512805
18	0x3fb7f56b	1.4371771
19	0xbf57a978	-0.84242964
20	0x3f03f4d0	0.5154543
21	0x3fbb52e8	1.4634676
22	0xbfac4090	-1.3457203
23	0xbf4f41b9	-0.8095966
24	0x3fa77377	1.3082112
25	0xbf8d432a	-1.1036122
26	0xbf880076	-1.0625141
27	0xbf1fa4ac	-0.62360644
28	0xbfbcff7f	-1.4765471
29	0xbf9cef0e	-1.2260454
30	0xbfb8865a	-1.4416001
31	0x3f7b5056	0.9816946
32	0x3f5b49c6	0.85659444
33	0xbc970497	-0.018434806
34	0xbf2471c6	-0.64236104
35	0xbf103ef3	-0.5634605
36	0x3fc2510b	1.5180982
37	0x3f3c3d47	0.73531
38	0x3fe36d4e	1.7767732
39	0xbff26404	-1.8936772
40	0x3f6c1599	0.92220455
41	0x3f64940b	0.89288396
42	0x3fb8d6f2	1.4440596
43	0x3edfeaca	0.43733817
44	0x3dbe420f	0.092899434
45	0xbf623f23	-0.8837759
46	0xbf89d723	-1.076878
47	0xbf9def00	-1.2338562
48	0xbf68765c	-0.908056
49	0x3f87b283	1.0601352
50	0x3f55432e	0.83305633
51	0x3d991b2b	0.07475885
52	0x3e881557	0.2657878
53	0xbf0b6a14	-0.5445874
54	0xbf6c8db0	-0.924037
55	0xbf75fa6d	-0.96085244
56	0x3fae3d94	1.3612542
57	0x3f1c4358	0.6104026
58	0x3f5d3df3	0.8642265
59	0xbf2ccf79	-0.6750408
60	0xbfdc0c51	-1.7191259
61	0xbf71ff9a	-0.9453064
62	0xbfc84784	-1.5646825
63	0xbf7b2c47	-0.98114437

net.2.weight f4 [64, 64]
0	0x3d21c7d0	0.039497197
1	0x3e35ded1	0.17760779
2	0x3d313681	0.04326487
3	0xbe0579d2	-0.13034752
4	0xbe91ee95	-0.28502336
5	0xbdb85c18	-0.090019405
6	0x3c5f69ad	0.013636035
7	0xbd76c116	-0.060242735
8	0x3dd8fbc9	0.10594899
9	0x3df5a17b	0.119936906
10	0xbd82a35f	-0.06378817
11	0x3d6b315d	0.057420123
12	0x3dbed3ef	0.09317767
13	0xbd6756cc	-0.05647926
14	0x3e850fff	0.25988767
15	0xbe8e22eb	-0.27761015
16	0xbc0d69d6	-0.00863119
17	0x3e638309	0.22217955
18	0x3e8dc1ee	0.2768702
19	0x3e121a91	0.14267947
20	0xbd90df73	-0.070738696
21	0xbdf53a81	-0.11974049
22	0x3e0f0e91	0.139704
23	0x3e0e5afa	0.13901892
24	0xbc8700cd	-0.016479874
25	0xbd2813b7	-0.041034427
26	0x3e3d9839	0.185151
27	0x3bb0c00d	0.005393988
28	0xbe85fa9f	-0.2616777
29	0xbe8c5a23	-0.2741252
30	0x3cb1dff8	0.021713242
31	0x3df8ff4a	0.121580675
32	0xbcfbec2f	-0.03075227
33	0x3e023a31	0.12717511
34	0xbdc63a85	-0.096791305
35	0x391b7eb6	0.00014829155
36	0x3e768357	0.2407354
37	0xbd025a5a	-0.031824447
38	0xbe13d8ba	-0.14438143
39	0xbe47445c	-0.19459671
40	0x3dc64607	0.096813254
41	0xbe323591	-0.17403246
42	0x3cdeebbf	0.027212022
43	0x3e686a95	0.22696908
44	0x3d9fb479	0.07798094
45	0xbdc1d4f1	-0.094644435
46	0xbe65b554	-0.22432452
47	0x3d84743c	0.064674824
48	0xbcf55fa6	-0.029952835
49	0x3cc0ced6	0.023536127
50	0x3dab13ac	0.083533615
51	0xbd8dbf0d	-0.06921206
52	0x3e284331	0.16431881
53	0x3e2ca403	0.1685944
54	0xbdab5e2d	-0.08367572
55	0x3dbc05de	0.091808066
56	0x3e0fc8e9	0.14041485
57	0x3de51516	0.111856624
58	0xbd5dad89	-0.054120574
59	0xbd8e7d43	-0.069574855
60	0xbe9ed5cc	-0.3102249
61	0xbe379918	-0.17929494
62	0x3dc229a9	0.09480602
63	0x3be871a3	0.0070936247
64	0xbda1e4c7	-0.07904964
65	0x3cc8c0bc	0.024505965
66	0xbe87f45a	-0.26553613
67	0x3eab3a9b	0.3344315
68	0x3de363a1	0.11102987
69	0x3edc5924	0.4303676
70	0x3dd3d816	0.103439495
71	0x3f051663	0.51987284
72	0x3dc8da5f	0.09807276
73	0x3eb2fbb6	0.34957665
74	0x3ce8f552	0.02843729
75	0x3ec7929b	0.3897904
76	0x3e97370e	0.2953419
77	0xb9b9040f	-0.00035288974
78	0xbcaefa93	-0.021359717
79	0x3d078dbc	0.033094153
80	0xbed57f7d	-0.41698828
81	0xbda8026e	-0.082035884
82	0xbd72d58c	-0.059285685
83	0xbd9aa70d	-0.07551394
84	0xbe3912b6	-0.18073544
85	0xbea1927f	-0.3155708
86	0x3ec68563	0.3877364
87	0x3e0df4cb	0.13862912
88	0xbe8d34e2	-0.2757941
89	0x3dca15ba	0.09867425
90	0x3e42aa9d	0.19010396
91	0x3ddbaaf0	0.10725963
92	0x3db9d5b0	0.09073961
93	0xbd7d8f7c	-0.061904415
94	0x3ef87847	0.48529264
95	0xbced3a16	-0.028958362
96	0xbebc1f89	-0.3674281
97	0x3dd7bc90	0.10534012
98	0x3e73cfdc	0.23809761
99	0x3e8971ea	0.26844722
100	0x3c8e5eda	0.017379213
101	0xbe87e9eb	-0.26545653
102	0xbea08187	-0.31348822
103	0x3da1463b	0.078747235
104	0x3d84b376	0.06479542
105	0xbe8347bf	-0.25640675
106	0xbee1a651	-0.44072202
107	0xbda2681a	-0.07930012
108	0x3d89be06	0.06725697
109	0x3d9d18dd	0.07670758
110	0xbdc07b97	-0.09398573
111	0xbda85786	-0.08219819
112	0xbc92923c	-0.017891996
113	0xbe9b64bc	-0.30350292
114	0xbe697081	-0.22796823
115	0xbe8c8fc5	-0.27453437
116	0x3db2a151	0.08722175
117	0x3e8c5b13	0.27413234
118	0xbd1d3114	-0.038376883
119	0x3e7f85d5	0.24953397
120	0xbd803547	-0.06260162
121	0x3c72c372	0.014817106
122	0xbed2530c	-0.41078985
123	0x3e6d3182	0.23163417
124	0x3db941e2	0.09045769
125	0x3c872343	0.016496306
126	0x3f07bbcf	0.5302095
127	0x3ec789e4	0.3897239
128	0xbd4dcc8d	-0.050243903
129	0x3d98fdae	0.074702606
130	0x3f05baf8	0.52238417
131	0xbe85d3e3	-0.2613822
132	0x3dbd919a	0.09256287
133	0xbeecb600	-0.46232605
134	0xbdc677c7	-0.096908145
135	0xbefd7d12	-0.49509484
136	0xbca41ca6	-0.020033192
137	0xbf03b4df	-0.5144786
138	0x3c6cfe8f	0.014464988
139	0xbf1f4d02	-0.6222688
140	0xbe9d4024	-0.30712998
141	0x3d9401af	0.072268836
142	0x3c859f6d	0.016311372
143	0xbc626aa5	-0.013819371
144	0x3ec74a52	0.3892389
145	0xbd66aedc	-0.056319103
146	0x3c9c4b25	0.0190788
147	0x3d3a0465	0.045414347
148	0x3e6643bb	0.22486775
149	0x3e9dc824	0.30816758
150	0xbebf8c35	-0.37411657
151	0xbe1591c8	-0.14606392
152	0x3f15cced	0.58515817
153	0x3bfbbe84	0.0076826233
154	0xbf0062b7	-0.50150627
155	0xbd8476d0	-0.06467974
156	0xbcfbf23f	-0.03075516
157	0x3e0cc896	0.13748392
158	0xbeeb3e6c	-0.45946062
159	0x3c4e2e85	0.012584333
160	0x3eb4d9a7	0.35322306
161	0xbdf1caa4	-0.11806229
162	0xbece09ec	-0.40241945
163	0xbe88631a	-0.26638108
164	0x3dbd3c5d	0.09240029
165	0x3ea8d062	0.32971483
166	0x3f21379b	0.6297547
167	0x3dab88e2	0.08375718
168	0xbe00877e	-0.12551686
169	0x3ee96790	0.45586824
170	0x3f0d48cc	0.55189204
171	0x3cb8a956	0.022541683
172	0xbe48330c	-0.19550723
173	0xbc908ec5	-0.017646203
174	0x3da21913	0.07914939
175	0xbd23d290	-0.03999573
176	0xbdc9250d	-0.0982152
177	0x3e875fd2	0.26440293
178	0x3ec5e3fe	0.38650507
179	0x3e01e5ff	0.12685393
180	0xbc920cd9	-0.017828392
181	0xbefa474d	-0.48882523
182	0xbc514662	-0.012773128
183	0xbe769a67	-0.24082337
184	0xbcadf35d	-0.021234209
185	0xbcb5aaf8	-0.02217625
186	0x3ecd492e	0.40094894
187	0xbed28f72	-0.41125065
188	0xbcec6ef2	-0.028861497
189	0xbd8fd824	-0.070236474
190	0xbf0f16be	-0.55894077
191	0xbef33deb	-0.47508177
192	0x3dd70136	0.10498278
193	0x3d1ad4e3	0.03780068
194	0x3e9f2baf	0.31088015
195	0xbf0d6885	-0.5523761
196	0xbe2b5a2c	-0.16733617
197	0xbec58633	-0.38578948
198	0xbe1da5f9	-0.15395345
199	0xbf1080bf	-0.5644645
200	0x3dd22db1	0.10262621
201	0xbf0a0103	-0.53907794
202	0xbdb1eab5	-0.08687345
203	0xbeab4c86	-0.3345682
204	0xbe34f671	-0.17672135
205	0x3d3775b4	0.044789985
206	0x3e22b5e9	0.15889706
207	0x3ce9b17d	0.028527016
208	0x3ee7a578	0.4524343
209	0x3dac1569	0.08402521
210	0x3e1f72c3	0.15571122
211	0x3e2b9b1c	0.16758388
212	0x3eb7a12f	0.3586516
213	0x3f0a8459	0.54108196
214	0xbedc4da9	-0.43028
215	0xbe454418	-0.19264257
216	0x3ebe1b1e	0.37130064
217	0xbe3a2bbe	-0.18180749
218	0xbda6d4bc	-0.081460446
219	0xbe2bf5f9	-0.1679305
220	0x3d074c46	0.033031724
221	0x3a9540fb	0.0011387164
222	0xbecb0f55	-0.39660135
223	0x3dd6cdbb	0.10488459
224	0x3e6f63ed	0.23377962
225	0xbea6342a	-0.32461673
226	0xbe8dc183	-0.276867
227	0xbe8e8134	-0.2783295
228	0x3db0c479	0.08631224
229	0x3e836aa8	0.2566731
230	0x3ebe0acc	0.37117612
231	0x3d4839c5	0.04888322
232	0x3d76c19d	0.060243238
233	0x3e8d6e52	0.2762323
234	0x3eb415d9	0.35172918
235	0x3dbf120e	0.093296155
236	0x3e079a22	0.13242391
237	0xbdd0f8d3	-0.102037095
238	0xbe045707	-0.12923823
239	0x3dc17395	0.09445874
240	0x3d107451	0.035267178
241	0x3ea57c2f	0.32321307
242	0x3ecf7073	0.4051548
243	0x3e8c4939	0.27399614
244	0x3e01e03a	0.12683192
245	0xbeb61d7b	-0.35569367
246	0xbe2a96ad	-0.16659041
247	0xbea0fda8	-0.31443524
248	0x3d3026dd	0.043005813
249	0xbd4427ee	-0.047889642
250	0x3eb03a2a	0.34419376
251	0xbecd587a	-0.40106565
252	0xbe1016b4	-0.1407116
253	0xbd74e55f	-0.059789058
254	0xbf13588b	-0.5755698
255	0xbea69ed9	-0.32543066

net.2.bias f4 [64]
0	0x3dc77b37	0.09740298
1	0x3dbcc829	0.09217865
2	0xbdc2a1da	-0.09503527
3	0xbd423f6a	-0.047423758
4	0xbdbcb57f	-0.09214305
5	0xbe0477b2	-0.12936285
6	0xbd5b684d	-0.053566266
7	0xbe2de3db	-0.16981451
8	0x3d8dc8ca	0.06923063
9	0xbdc54bd4	-0.09633604
10	0xbe8cc8a5	-0.2749683
11	0x3e9c0b2f	0.30477282
12	0xbe7e58da	-0.24838582
13	0xbd808f94	-0.06277385
14	0x3bdc9c05	0.006732466
15	0xbe8440ba	-0.25830632
16	0x3dba84b9	0.09107346
17	0x3d386097	0.04501399
18	0x3c2dc97f	0.010607122
19	0xbd5d7d75	-0.054074723
20	0x3df49fa2	0.1194451
21	0xbe1df9f4	-0.15427381
22	0x3e845e7b	0.25853333
23	0xbdaa4637	-0.08314174
24	0xbe91f10e	-0.28504223
25	0xbe01f9b3	-0.12692909
26	0x3dbc6736	0.091993734
27	0xbc65579a	-0.013997937
28	0xbeab426b	-0.3344911
29	0x3e0866ce	0.13320467
30	0x3e2f5f99	0.17126311
31	0x3d9b3000	0.07577515
32	0x3e495900	0.19662857
33	0xbea1cb5c	-0.31600463
34	0xbd140dbe	-0.036145918
35	0x3e1dcbfe	0.15409848
36	0xbe5d797e	-0.21628377
37	0xbe7df225	-0.24799402
38	0x3cd01dbb	0.025404802
39	0xbe302e77	-0.17205225
40	0x3e8d7079	0.27624872
41	0xbd01b291	-0.031664435
42	0xbc4de730	-0.012567326
43	0xbca8c7ff	-0.020603178
44	0x3e79f0dd	0.24408288
45	0x3c0f934e	0.0087631475
46	0xbe59e50e	-0.21278784
47	0xbd75b03b	-0.05998252
48	0x3e1f06cb	0.15529935
49	0xbda0e85b	-0.07856818
50	0xbe9eb739	-0.30999163
51	0x3dbb7168	0.0915249
52	0xbe2c9fa4	-0.16857773
53	0x3e6212ec	0.2207753
54	0xbcabef10	-0.020988017
55	0x3e5b9c19	0.21446265
56	0xbe876045	-0.26440635
57	0x3de22e6e	0.11044012
58	0xbd9cc4f8	-0.07654756
59	0xbe13d3bb	-0.14436238
60	0xbe85c646	-0.26127833
61	0xbe1a881d	-0.15090986
62	0xbe14058d	-0.14455242
63	0x3e0bf687	0.13668261

net.4.weight f4 [1, 64]
0	0x3fcd1169	1.6020938
1	0x3fcd4602	1.603699
2	0xbfcb6cd7	-1.589259
3	0xbfc2450a	-1.5177319
4	0x3fc46e39	1.5346137
5	0x3fca9b6f	1.5828685
6	0xbfc5adc7	-1.5443658
7	0x3fc67ace	1.5506227
8	0x3fcdb6f2	1.6071455
9	0xbfd0a083	-1.6298984
10	0x3fc22657	1.516795
11	0x3fcc93f0	1.5982647
12	0xbfcbf280	-1.593338
13	0x3fc508d3	1.5393318
14	0xbfcc44d1	-1.5958501
15	0xbfd51ff9	-1.6650382
16	0x3fd4265e	1.6574209
17	0xbfc51912	-1.5398276
18	0xbfcd4652	-1.6037085
19	0xbfcf87b7	-1.6213292
20	0x3fd118aa	1.6335652
21	0xbfd2b170	-1.64604
22	0xbfc2e581	-1.5226289
23	0x3fcc0de1	1.5941736
24	0xbfd45b83	-1.6590427
25	0x3fca1132	1.5786498
26	0x3fcc942b	1.5982717
27	0x3fc7bc05	1.5604254
28	0x3fbfcdc2	1.4984667
29	0x3fd51226	1.6646163
30	0x3fd2841d	1.6446568
31	0x3fcf0664	1.6173825
32	0x3fd02568	1.6261415
33	0x3fbfef68	1.4994936
34	0x3fc73062	1.556164
35	0x3fcebc0a	1.6151135
36	0xbfd5ac90	-1.6693287
37	0xbfd83d88	-1.6893778
38	0x3fccb89f	1.5993842
39	0xbfd178a0	-1.6364937
40	0x3fcac6c7	1.5841912
41	0xbfd757b4	-1.682364
42	0x3fc6d64d	1.553415
43	0x3fc21302	1.5162051
44	0x3fcb4f46	1.5883567
45	0xbfc97c49	-1.5741054
46	0xbfcab769	-1.5837222
47	0xbfd25bfd	-1.6434323
48	0x3fcd1af6	1.6023853
49	0xbfd5fff9	-1.6718742
50	0x3fc13b43	1.509621
51	0x3fd412b1	1.6568204
52	0x3fbdc7f4	1.4826646
53	0x3fcef799	1.6169311
54	0x3fc9238f	1.5713977
55	0x3fce74aa	1.6129353
56	0xbfcc8cf6	-1.5980518
57	0xbfc72282	-1.5557406
58	0xbfca0449	-1.5782558
59	0x3fb868f7	1.4407033
60	0xbfd61bdb	-1.6727251
61	0x3fca9b21	1.5828592
62	0xbfcee9f5	-1.6165148
63	0x3fcafdd9	1.5858718
