models/heston_model.pth (torch, 37820 bytes, 7 tensors)

net.0.weight f4 [64, 3]
0	0x3e4e289d	0.2013268
1	0x3f8a60d5	1.0810801
2	0x3da8816c	0.0822781
3	0x3d496d1e	0.049176328
4	0x3d8483e3	0.06470468
5	0x3e73522d	0.23761816
6	0xbc2949c9	-0.010332533
7	0x3f65036e	0.8945836
8	0x3e864f60	0.26232433
9	0x3f12698b	0.57192296
10	0x3f1e64df	0.6187267
11	0x3d6ed559	0.058308933
12	0xb94b91b4	-0.00019413867
13	0xbe00055a	-0.12502041
14	0x3f4bb26e	0.7956914
15	0x3d13ae5a	0.036054946
16	0x3f756226	0.9585289
17	0xbed32b98	-0.41244197
18	0x3aff1d60	0.001946371
19	0xbf87c3e3	-1.0606655
20	0xbf0dcc11	-0.55389506
21	0xbee2d6c2	-0.44304472
22	0x3e5a9477	0.21345697
23	0x3e4d2f68	0.20037615
24	0xbd058a83	-0.0326028
25	0x3eab15ed	0.33415166
26	0xbe626daf	-0.22112153
27	0xbb1fae91	-0.0024365524
28	0xbfb0bc46	-1.3807456
29	0x3f8d66e9	1.1047031
30	0xbf074ca6	-0.5285133
31	0xbf7360a8	-0.9506936
32	0xbd44b905	-0.04802801
33	0x3f4d316e	0.8015355
34	0x3f1b0599	0.60555416
35	0x3f522748	0.8209119
36	0xbcf10f8c	-0.029426359
37	0x3e0eff86	0.13964662
38	0x3f34c2db	0.70609826
39	0x3c490624	0.01226953
40	0x3f15440f	0.58306974
41	0xbf000731	-0.50010973
42	0xbf20ca60	-0.628088
43	0xbf0dd762	-0.55406773
44	0x3d475e1c	0.048673734
45	0xbe0a3b86	-0.13499269
46	0xbecb8fbc	-0.39758098
47	0xbec31e17	-0.38108894
48	0x3c5be6d7	0.013421736
49	0x3e82ac1a	0.25521928
50	0xbf0f3fae	-0.5595654
51	0x3cfaec6a	0.03063031
52	0x3e9f2f54	0.31090796
53	0xbf2d7d9f	-0.6776981
54	0xbce690d9	-0.02814524
55	0x3f82be21	1.0214273
56	0xbf2386bc	-0.63877463
57	0xbbdc4407	-0.0067219767
58	0xbf1e4275	-0.61820155
59	0xbeabf7dd	-0.33587542
60	0xbe5cfe68	-0.21581423
61	0xbf4e5c18	-0.80609274
62	0xbf004d75	-0.5011819
63	0xbe9f89f2	-0.3115993
64	0xbecf4f4c	-0.40490186
65	0xbe477cb9	-0.19481172
66	0xbe379c45	-0.17930706
67	0xbe99b1b4	-0.3001839
68	0xbe862040	-0.2619648
69	0x3ec3d909	0.38251522
70	0x3eda9915	0.42694917
71	0xbda6f8cf	-0.08152925
72	0x3c82a396	0.015947144
73	0xbd477ccc	-0.048703
74	0xbf5fd66e	-0.8743657
75	0x3d836a04	0.06416705
76	0x3f14bc3d	0.5809973
77	0x3e94b988	0.290478
78	0x3d242859	0.04007754
79	0x3fad2b50	1.3528843
80	0xbd24501a	-0.040115453
81	0xbb14e3c7	-0.0022718774
82	0x3fc2c465	1.5216185
83	0xbf032ff2	-0.51245034
84	0xbef147fc	-0.47125232
85	0xbf88e2f4	-1.0694261
86	0xbeb53b78	-0.35396934
87	0x3f5f2fb7	0.8718218
88	0x3eb28c8f	0.34872863
89	0x3d311eb6	0.04324218
90	0x3d9b5b02	0.07585718
91	0x3ee8ca91	0.45467046
92	0xbe879663	-0.26481923
93	0xbc333429	-0.010937729
94	0xbe0ac774	-0.13552648
95	0x3e54f157	0.20795189
96	0x3c5a9034	0.013340045
97	0x3e10c7e2	0.14138749
98	0xbf36cd4b	-0.71407
99	0x3d411339	0.047137473
100	0xbfb0cdba	-1.3812783
101	0xbf142493	-0.5786831
102	0xb8696796	-5.5648e-05
103	0x400e33fd	2.221923
104	0xbee034bd	-0.43790236
105	0x3c3e36e0	0.011609763
106	0x3f637c41	0.8886147
107	0xbe4ef28b	-0.2020971
108	0x3d09dcd5	0.033657867
109	0x3eca6261	0.39528182
110	0x3ed00f7f	0.40636823
111	0xbc31be95	-0.010848661
112	0xbfde24e7	-1.7355012
113	0x3eb8c6c8	0.36089158
114	0x3f47656e	0.77889144
115	0x3fe028e5	1.751248
116	0x3e6eb975	0.23312934
117	0x3c949643	0.018138057
118	0xbf19b83e	-0.60046756
119	0x3f2079fe	0.62686145
120	0x3c33408b	0.010940681
121	0xbcda9606	-0.026682865
122	0xbd514170	-0.051087797
123	0x3ee9bf8c	0.4565395
124	0x3e253dbb	0.1613683
125	0x3f3f7852	0.7479297
126	0x3a5ff643	0.0008543471
127	0xbfc36b2e	-1.5267084
128	0x3f1f3e42	0.6220437
129	0x3d2a36dd	0.041556228
130	0xbe00666b	-0.1253907
131	0x3e3e3621	0.18575336
132	0x3e7908ba	0.24319735
133	0x3f99a599	1.2003661
134	0xbfaefbdd	-1.3670613
135	0xbe8bfbf7	-0.2734067
136	0xbf39321b	-0.7234208
137	0xbd3d7ce9	-0.0462617
138	0x3b8fe959	0.004391831
139	0x3fd184fc	1.6368709
140	0xbd538fc4	-0.051650777
141	0xbba7e857	-0.0051241326
142	0xbc01709f	-0.007900386
143	0xbf3399a8	-0.70156336
144	0xbe74c054	-0.23901492
145	0xbfb9a369	-1.4502994
146	0xbdcd975d	-0.10038636
147	0xbc2f785a	-0.010709846
148	0x3e94c973	0.29059944
149	0x3ef25e62	0.47337633
150	0xbc20acf3	-0.009806859
151	0xbe6b9ad0	-0.23008275
152	0x3cde50a3	0.02713806
153	0x3a9b9ab2	0.0011871664
154	0xc005c4e5	-2.0901425
155	0xbe10eb98	-0.14152372
156	0xbd1bab10	-0.038004935
157	0xbec9b9cd	-0.39399567
158	0x3f79dfcc	0.9760711
159	0xbc72e41e	-0.014824895
160	0xbf263486	-0.64923894
161	0x3f48c8cc	0.7843139
162	0x3f413de0	0.7548504
163	0x3fb40e2a	1.4066823
164	0x3e98153e	0.29703707
165	0x3e4b34cd	0.1984436
166	0x3f352f98	0.7077575
167	0x3ef9aac3	0.48763093
168	0x3c4fed9b	0.012690927
169	0x3f4c29c5	0.79751235
170	0xbec1cabc	-0.37849987
171	0xbc0b34cf	-0.008496477
172	0x3d345821	0.04402936
173	0xbe2154c9	-0.15754999
174	0xbd505dbf	-0.050870653
175	0xbfa2c68d	-1.2716843
176	0x3fb6f021	1.4292032
177	0xbbdf4a36	-0.0068142666
178	0x3fedd33d	1.858009
179	0x3d4ea26b	0.050447863
180	0x3c4a7637	0.012357286
181	0x3f22ad47	0.6354565
182	0xbf4a7eec	-0.7909992
183	0xbec5582d	-0.38543835
184	0x3a35316a	0.00069119653
185	0xbed8d5d5	-0.4235064
186	0x3c528700	0.012849569
187	0x3e93c1cd	0.28858796
188	0xbf30c87d	-0.6905592
189	0xbd1b328f	-0.037890013
190	0xbf19609d	-0.59913045
191	0x3f676d41	0.90401083

net.0.bias f4 [64]
0	0x3faba24e	1.3408906
1	0xbda7f3e4	-0.08200815
2	0x3f813acd	1.009607
3	0x3f84e759	1.0383102
4	0xbcc386fc	-0.023868077
5	0x3f6b5a8e	0.9193505
6	0xbf5e87e6	-0.86926115
7	0xbf942653	-1.1574196
8	0xbf1eeff7	-0.6208491
9	0xbe23adb6	-0.15984234
10	0xbf228ba6	-0.63494337
11	0x3f8742cf	1.0567263
12	0xbd6ad724	-0.05733408
13	0xbed4f207	-0.41590902
14	0xbf9f623a	-1.2451851
15	0xbf0a6733	-0.5406372
16	0xbf7e274f	-0.9927873
17	0xbecfa411	-0.4055486
18	0xbedba475	-0.42898908
19	0x3d7022a5	0.05862679
20	0xbf108f6e	-0.56468856
21	0xbf7993be	-0.9749106
22	0x3eea715e	0.45789617
23	0x3f6cdf63	0.9252836
24	0xbdf98953	-0.12184396
25	0xbf147b4f	-0.58000654
26	0x3e52abf3	0.20573406
27	0x3f3f1c85	0.7465289
28	0xbf408bbd	-0.75213224
29	0x3f9dd1cc	1.232965
30	0x3f40a39e	0.7524966
31	0x3ef121ed	0.47096196
32	0xbf52986a	-0.82263815
33	0xbedccc49	-0.43124607
34	0x3e195b0b	0.14976136
35	0xbf3faa6a	-0.74869406
36	0x3f026fd6	0.509519
37	0x3b9cbc10	0.004783161
38	0x3e792a18	0.24332464
39	0x3f49de3f	0.78854746
40	0xbf58aee5	-0.8464187
41	0xbd0f4ac6	-0.03498342
42	0xbec923a1	-0.39284995
43	0x3e9cde67	0.3063843
44	0x3f8213b0	1.0162258
45	0xbf83d9e5	-1.0300871
46	0xbc38cb0c	-0.011278879
47	0x3f2f33e2	0.6843854
48	0xbd18ea3b	-0.037332755
49	0x3f20f74c	0.62877345
50	0x3ea4a913	0.32160243
51	0xbeb01c20	-0.34396458
52	0x3fa97f2b	1.3241934
53	0x3f8dc0a2	1.1074412
54	0xbec27003	-0.37976083
55	0x3eef8760	0.4678297
56	0xbf5cfad5	-0.8632024
57	0x3e95b5c2	0.29240233
58	0x3fc924ca	1.5714352
59	0x3f4ff598	0.8123412
60	0x3d9da03c	0.07696578
61	0xbd8879f0	-0.06663883
62	0xbe861970	-0.26191282
63	0x3f65f67e	0.8982924

net.2.weight f4 [64, 64]
0	0xbe58f238	-0.21186149
1	0xbcbdce3f	-0.023169635
2	0x3d1765f1	0.036962453
3	0xbe224d1b	-0.15849726
4	0xbdc12b60	-0.09432101
5	0xbe4da42c	-0.20082158
6	0x3d748d43	0.05970503
7	0x3c47adc5	0.012187426
8	0x3e35363e	0.17696473
9	0x3d490a74	0.049082235
10	0x3dad3be0	0.08458686
11	0xbe394882	-0.18094066
12	0xbd751a3f	-0.059839483
13	0x3c3abfe9	0.011398294
14	0x3e30d816	0.1726993
15	0x3cc87377	0.02446912
16	0x3c2d8f40	0.0105932355
17	0x3ca131af	0.019677011
18	0x3c95b69f	0.018275557
19	0xbc3ec8cb	-0.011644552
20	0x3dbcb9bc	0.092151135
21	0x3dbd6449	0.092476435
22	0xbcde38db	-0.02712672
23	0xbe0a791c	-0.13522762
24	0xbd7f87d0	-0.06238538
25	0x3de5295d	0.1118953
26	0xbdd00cea	-0.10158713
27	0xbdb34fef	-0.087554805
28	0xbcdc1ee7	-0.026870204
29	0xbd9668d7	-0.07344215
30	0x3dac97e3	0.084274076
31	0xbd695dcb	-0.056974214
32	0x3d03062c	0.031988308
33	0xbdb9379b	-0.09043809
34	0xbdabf8e4	-0.083970815
35	0xbdb37e23	-0.08764293
36	0xbe3ddccc	-0.18541259
37	0x3e31b958	0.1735586
38	0x3ddc5345	0.1075807
39	0x3c70d6c8	0.014699645
40	0x3d4c3533	0.049855422
41	0xbd923118	-0.0713827
42	0x3d7a641c	0.061130628
43	0xbe21c5f8	-0.15798175
44	0xbe3b9cb3	-0.18321495
45	0x3e0d68d9	0.13809527
46	0xbdd9dd97	-0.10637968
47	0x3dbff00c	0.09371957
48	0x3d60810a	0.05481056
49	0xba8e43c9	-0.0010853942
50	0x3e17403b	0.14770596
51	0x3dd5441d	0.10413382
52	0x3c9451e7	0.01810546
53	0xbdd430ee	-0.10360895
54	0xbcc0b0e6	-0.023521852
55	0xbc93920d	-0.018013978
56	0xbd9dfaf3	-0.077138804
57	0x3dbaa458	0.09113377
58	0xbdbb7901	-0.09153939
59	0xbd64eb1c	-0.05588828
60	0xbdb9f0c6	-0.09079127
61	0xbd804014	-0.06262222
62	0x3ca23670	0.019801348
63	0xb8f4021b	-0.00011635219
64	0x3d112202	0.035432823
65	0x39e61edb	0.00043892008
66	0x3e080d8d	0.13286419
67	0x3b6fd8e8	0.0036597792
68	0xbe1ed840	-0.1551218
69	0x3de19de8	0.11016446
70	0x3d3c7c4a	0.04601697
71	0x3d648ef2	0.055800386
72	0xbdf25240	-0.11832094
73	0x3eb02618	0.34404063
74	0xbae425fb	-0.0017406339
75	0x3baa2566	0.0051924465
76	0xbd32eef7	-0.043684926
77	0xbe12f5c9	-0.14351572
78	0xbdb9e24c	-0.09076366
79	0xbe29041c	-0.16505474
80	0xbd94105c	-0.07229683
81	0x3d62ecee	0.055401735
82	0xbdc9c42e	-0.098518714
83	0x3e6c00aa	0.23047128
84	0xbd4c0c90	-0.049816668
85	0xbd00bd7b	-0.031430703
86	0xbdee3691	-0.116315015
87	0xbd6b8043	-0.057495367
88	0x3dba43fd	0.09094999
89	0x3e1f6501	0.15565874
90	0x3d647b53	0.055781674
91	0xbe9cfbb5	-0.30660787
92	0xbdce7d60	-0.10082507
93	0x3e1d2771	0.15347077
94	0xbc1674ba	-0.009183103
95	0x3e59523f	0.2122278
96	0xbd4861c4	-0.04892136
97	0xbcd09b78	-0.025464758
98	0xbefd69f0	-0.49494886
99	0xbe955995	-0.29169908
100	0x3deb50e7	0.1149004
101	0x3e58e044	0.211793
102	0x3e03e362	0.12879708
103	0xbd1afeea	-0.03784076
104	0xbe9967da	-0.29962045
105	0x3bdf2929	0.0068103266
106	0x3eb674f0	0.3563609
107	0x3e3535fb	0.17696373
108	0x3dae22da	0.08502741
109	0xbc54e190	-0.012993231
110	0xbe83d3f0	-0.25747633
111	0x3ecc2e48	0.3987906
112	0xbd2bdd0b	-0.04195885
113	0x3e20a0c5	0.15686329
114	0x3e55c47a	0.20875731
115	0x3e9bf566	0.30460662
116	0xbd80695d	-0.062700965
117	0x3dae4b40	0.085104465
118	0x3de2ab4a	0.11067827
119	0x3c3e9505	0.011632209
120	0xbe83be60	-0.25731182
121	0x3e67f0d9	0.2265047
122	0x3cc3533a	0.023843396
123	0xbe5c35d4	-0.21504909
124	0xbd37de4b	-0.04488973
125	0xbd9dadc1	-0.076991566
126	0xbdc9cf5e	-0.09854005
127	0xbe06d85a	-0.13168469
128	0x3d9574e9	0.072976895
129	0xbd2ab7cc	-0.04167919
130	0x3ee35056	0.4439723
131	0x3d9f6ed1	0.077848084
132	0x3d0110f9	0.031510327
133	0x3df8dfa3	0.1215203
134	0xbe9d8e76	-0.30772752
135	0xbde46771	-0.111525424
136	0xbdc8053b	-0.09766623
137	0x3d0810f7	0.033219304
138	0xbdb23958	-0.08702344
139	0x3d452da8	0.048139244
140	0xbdc06369	-0.09393961
141	0xbe15df18	-0.14635885
142	0xbde05aba	-0.10954805
143	0x3bc154da	0.0059000077
144	0xbe94fe4a	-0.29100257
145	0x3d45b959	0.048272464
146	0xbe1ed597	-0.15511166
147	0x3ce7488e	0.028232839
148	0x3d09d807	0.033653285
149	0xbd5942ba	-0.05304215
150	0xbdd21961	-0.10258747
151	0xbbd7f64a	-0.0065906392
152	0xbdecb172	-0.115572825
153	0x3dcdb3f5	0.1004409
154	0x3c3f8b01	0.011690856
155	0x3e802e1f	0.25035188
156	0xbd771ead	-0.06033199
157	0xba384f71	-0.00070308807
158	0x3e00ce14	0.12578613
159	0x3dd7b491	0.10532487
160	0xbe8e1869	-0.27752998
161	0x3d762f16	0.0601035
162	0x3d64d899	0.055870626
163	0xbe948c19	-0.29013136
164	0x3d8c58a9	0.06852848
165	0x3cfca9a5	0.030842612
166	0x3e3395e4	0.17537647
167	0x3d9e1d8b	0.077204786
168	0xbe71c22d	-0.23609228
169	0xbd1c6b63	-0.03818835
170	0xbc091a1e	-0.008368043
171	0x3dec7e9a	0.11547585
172	0x3d9fb3e5	0.07797984
173	0xbc50c69c	-0.012742665
174	0xbd6f24db	-0.058384757
175	0x3e3a6166	0.18201217
176	0xbe1f7181	-0.15570642
177	0x3e8e7aaf	0.27827975
178	0x3e5854a1	0.21126033
179	0xbeae9dab	-0.34104666
180	0x3d095127	0.03352466
181	0x3e2ebf21	0.17065097
182	0x3db6d3b4	0.08927098
183	0x3dc669f9	0.096881814
184	0xbe3aa685	-0.18227585
185	0x3e461813	0.19345121
186	0xbe0c0406	-0.1367341
187	0x3ec5b21b	0.38612446
188	0xbd9a78a7	-0.07542544
189	0xbcf62429	-0.03004654
190	0xbe290365	-0.16505201
191	0xbdf92401	-0.1216507
192	0xbdace14e	-0.08441411
193	0xbdbeff69	-0.09326059
194	0xbcfad60f	-0.03061965
195	0xbd482218	-0.04886064
196	0xbc16ea06	-0.009211069
197	0xbe233129	-0.15936722
198	0x3e22288d	0.15835781
199	0x3e5048ca	0.20340267
200	0x3e1574bc	0.14595312
201	0x3d6b5378	0.05745265
202	0x3dd2bb70	0.10289657
203	0xbdbf817b	-0.09350868
204	0xbbdd9a99	-0.0067628142
205	0x3d60e5ee	0.054906778
206	0x3dad6006	0.08465581
207	0x3db2a7b4	0.08723393
208	0x3ce78b8d	0.028264785
209	0xbd31526c	-0.043291494
210	0x3c2ee78b	0.010675321
211	0x3da176b1	0.07883967
212	0x3cadde94	0.021224298
213	0x3d8fe663	0.07026365
214	0x3d801222	0.062534586
215	0xbe3da858	-0.1852125
216	0x3cc464cb	0.023973843
217	0xbc99ad76	-0.01875947
218	0xbdf8f0c9	-0.12155301
219	0xbcc310b5	-0.023811677
220	0x3d68d0b8	0.056839675
221	0xbdf7af6d	-0.12094007
222	0xbe11b1b2	-0.14227942
223	0xbc6ec088	-0.01457227
224	0x3da015fa	0.07816692
225	0x3dd23386	0.102637336
226	0xbdca5618	-0.09879702
227	0xbd9e37ec	-0.0772551
228	0xbe42c4f0	-0.19020438
229	0xbb493ac6	-0.0030705198
230	0xbdcb11d1	-0.099155076
231	0xbb4042d7	-0.0029336715
232	0x3da5c3eb	0.08094009
233	0x3d6df3c2	0.058093794
234	0xbca2d846	-0.019878518
235	0xbe12a4f6	-0.1432074
236	0xbd1f2f0a	-0.03886322
237	0x3e050b28	0.12992537
238	0x3d7f4137	0.062318053
239	0x3e080769	0.13284077
240	0x3d94481b	0.072403155
241	0x3d4a9c9b	0.049465757
242	0xbd83de55	-0.06438891
243	0x3bb09a13	0.005389461
244	0x3da6fdc5	0.081538714
245	0x3cab3088	0.020897165
246	0x3dc7b5cf	0.09751474
247	0xbe378551	-0.1792195
248	0xbdc46985	-0.09590439
249	0x3ca3d98e	0.0200012
250	0x3c698c1c	0.014254596
251	0xbe0aac32	-0.1354225
252	0xbdb69e60	-0.089169264
253	0x3d2cb85a	0.042168
254	0xbda030a8	-0.078217804
255	0x3b30e10f	0.0026989614

net.2.bias f4 [64]
0	0xbe3d29d0	-0.18472981
1	0x3d406e37	0.04698011
2	0x3e23b975	0.15988715
3	0xbdfd3dd0	-0.123653054
4	0xbe1dee05	-0.15422828
5	0xbe6d628c	-0.23182124
6	0x3db2f928	0.08738929
7	0x3cf7f015	0.030265847
8	0xbcd59509	-0.026072042
9	0xbd153d8b	-0.036435645
10	0xbe86fc98	-0.2636459
11	0xbcd4cac4	-0.025975592
12	0xbe2f1c63	-0.17100672
13	0xbe08b325	-0.13349588
14	0x3e264c6a	0.16240087
15	0xbe09349a	-0.13398972
16	0x3d5a6db5	0.05332728
17	0x3e1f51c0	0.15558529
18	0xbdec9985	-0.11552719
19	0xbc5d3669	-0.013501742
20	0xbded410e	-0.11584674
21	0xbc403934	-0.011732388
22	0xbdfb22a5	-0.12262467
23	0x3df76bf9	0.12081141
24	0x3de1d31d	0.11026595
25	0xbca088be	-0.019596454
26	0xbd76da74	-0.060266927
27	0x3e03474e	0.1282017
28	0x3dda84a2	0.10669829
29	0x3e3e1e62	0.18566278
30	0xbd9c7c6c	-0.07640919
31	0xbd46225b	-0.048372608
32	0x3dfba22f	0.122867934
33	0x3d81cc0c	0.06337747
34	0xbca9b56a	-0.020716388
35	0xbbdf8d35	-0.006822253
36	0x3e0edda2	0.13951734
37	0x3c0d5da0	0.008628279
38	0xbe4725e1	-0.19448043
39	0x3e3e3f4c	0.18578833
40	0x3de633a3	0.11240318
41	0x3d9fd691	0.07804597
42	0xbd8822af	-0.0664724
43	0x3cb45de8	0.022017434
44	0xbc36b927	-0.011152542
45	0x3d8a0813	0.06739821
46	0x3e30931f	0.17243622
47	0xbc9ef061	-0.019401731
48	0x3da7cb00	0.08193016
49	0xbcb84b78	-0.022496924
50	0xbda69de8	-0.08135587
51	0xbd4e1e0b	-0.05032162
52	0xbcdb6c33	-0.026784992
53	0x3d963e3f	0.07336091
54	0x3e388a61	0.18021537
55	0xbe0f478a	-0.13992134
56	0x3e66db43	0.22544579
57	0xbe0770a1	-0.13226558
58	0xbe39ac36	-0.181321
59	0xbe05dce3	-0.13072543
60	0xbb90d65a	-0.004420084
61	0x3d2412cf	0.040057
62	0x3c69f432	0.014279412
63	0xbd482b39	-0.048869345

net.4.weight f4 [64, 64]
0	0x3db036da	0.08604212
1	0xbdf59ec7	-0.11993175
2	0xbec2c930	-0.3804412
3	0xbda2ba2e	-0.07945667
4	0x3ee9d082	0.4566689
5	0x3cbbcd0e	0.022924926
6	0xbd81636c	-0.06317791
7	0xbed3b77d	-0.41350928
8	0x3e4ad874	0.19809133
9	0x3e337019	0.1752323
10	0x3dcb6826	0.09931974
11	0xbe761931	-0.24033047
12	0x3e88ec4d	0.26742783
13	0xbd5b7ce4	-0.0535859
14	0xbdf47c10	-0.119377255
15	0x3a95aaf7	0.0011418749
16	0x3e203b53	0.1564763
17	0xbece3686	-0.40275973
18	0x3e6ab5da	0.22920933
19	0xbd90a9a0	-0.070636034
20	0x3e7c1afb	0.24619667
21	0xbe06c91d	-0.13162656
22	0xbd6888e7	-0.056771185
23	0x3d1a6bfd	0.037700642
24	0x3d69b68c	0.057058856
25	0x3ebfa253	0.3742853
26	0xbd2a3690	-0.04155594
27	0xbd713208	-0.058885604
28	0xbe5f93e8	-0.21833766
29	0xbbc2eee5	-0.0059488886
30	0x3c8b4c36	0.017004114
31	0x3d9dc356	0.07703273
32	0x3d8c60c7	0.06854396
33	0xbeb221e5	-0.34791484
34	0xbeabf6b3	-0.33586654
35	0xbcef2bf6	-0.029195767
36	0xbd6989e7	-0.05701628
37	0x3e00c5af	0.1257541
38	0xbd6b7469	-0.057484064
39	0xbd9f7da1	-0.07787634
40	0x3d2a7952	0.041619606
41	0xbbe18875	-0.006882722
42	0xbe359181	-0.17731287
43	0x3f066215	0.5249341
44	0x3d32f6a5	0.04369225
45	0xbdcc964a	-0.09989603
46	0x3d8db9d0	0.069202065
47	0xbecfc934	-0.40583193
48	0xbe89a4b5	-0.26883474
49	0x3def743e	0.11692093
50	0xbc619b99	-0.0137700075
51	0xbf071a25	-0.5277427
52	0xbe831da8	-0.25608563
53	0xbd95842f	-0.07300603
54	0x3ce5e829	0.028064804
55	0x3c753b2d	0.014967722
56	0x3d61fd85	0.055173416
57	0x3eb637a5	0.35589328
58	0xbd5a7f8f	-0.053344306
59	0x3ea6f6db	0.3261021
60	0x3e4efe54	0.20214206
61	0x3ceb6b0c	0.028737567
62	0x3ebc7946	0.36811274
63	0x3dded02a	0.10879548
64	0x3e61cc96	0.220507
65	0xbde4e250	-0.11175978
66	0x3e17ff8a	0.14843574
67	0x3da7ac8f	0.0818721
68	0xbe6996ec	-0.22811478
69	0x3db0ff9b	0.08642503
70	0xbe182b62	-0.14860299
71	0x3cc3bd54	0.02389399
72	0xbdc61ab1	-0.0967306
73	0xbdc85fea	-0.09783919
74	0x3dc7bcaa	0.09752782
75	0x3d128b83	0.03577758
76	0x3c3ff1f7	0.011715404
77	0x3d8cd924	0.06877354
78	0xbe5c8025	-0.21533258
79	0x3d51538b	0.051105063
80	0xbe912c6d	-0.28354207
81	0xbb9618f7	-0.0045806128
82	0xbc0fa77f	-0.0087679615
83	0x3e1cf996	0.15329584
84	0x39b81478	0.00035110465
85	0x3e86944f	0.26285025
86	0x3ded2f8c	0.115813345
87	0x3e25803a	0.16162196
88	0xbd676922	-0.056496747
89	0x3d4825d6	0.04886421
90	0x3d75b366	0.05998554
91	0x3c0a803c	0.008453425
92	0xbbd6f46d	-0.0065598995
93	0xbe5970b3	-0.21234398
94	0xbe222a69	-0.1583649
95	0x3e412bc7	0.18864356
96	0xbe5086a7	-0.20363866
97	0x3cbcf158	0.0230643
98	0x3e61c56f	0.22047971
99	0x3e13271e	0.14370391
100	0xbe55cb0c	-0.20878237
101	0x3eae7da5	0.34080234
102	0x3e702bc0	0.2345419
103	0xbdb50756	-0.0883929
104	0xbe6c38c1	-0.23068525
105	0xbe03a88b	-0.12857263
106	0xbe1e2137	-0.15442358
107	0xbe926760	-0.28594494
108	0x3e37bf67	0.17944108
109	0xbe54e602	-0.20790866
110	0xbd82192f	-0.0635246
111	0x3e2ce5d0	0.16884542
112	0x3e0efa4c	0.13962668
113	0xbe244d07	-0.16045009
114	0x3e8a3be6	0.26998824
115	0x3dd8bbf1	0.10582722
116	0x3d9dd412	0.07706465
117	0x3e1f10c5	0.15533741
118	0xbe03a2c5	-0.1285506
119	0x3d86ee6f	0.06588446
120	0xbe5740be	-0.21020791
121	0x3d1e2a1d	0.03861438
122	0x3d9337cf	0.07188379
123	0x3cfa7726	0.030574393
124	0x3c4d54ab	0.012532393
125	0xbe0ba4ff	-0.1363716
126	0xbd531b90	-0.051539958
127	0x3e941594	0.28922713
128	0xbdded1ca	-0.10879858
129	0xbda0cc54	-0.078514725
130	0x3cd0def8	0.025496945
131	0xbe08e2c7	-0.13367759
132	0xbcee02c3	-0.029054051
133	0xbe0e2c11	-0.13883997
134	0x3e8412ca	0.25795585
135	0x3d928d36	0.0715584
136	0x3e0e9130	0.13922572
137	0x3dd15f4a	0.10223253
138	0xbd3b7e15	-0.045774538
139	0xbe053dd3	-0.13011865
140	0x3d622586	0.055211566
141	0xbe428c00	-0.18998718
142	0x3e05839e	0.13038489
143	0xbe8d7d34	-0.27634585
144	0x3e4650b9	0.19366731
145	0x3cf66741	0.030078532
146	0x3beda295	0.0072520473
147	0xbdc94de6	-0.09829311
148	0x3c957cdc	0.018248014
149	0xbe8d4801	-0.27593997
150	0xbe8a4fd3	-0.27014026
151	0x3e257995	0.16159661
152	0x3e51e45b	0.20497267
153	0x3d588bd9	0.052867744
154	0xbdf78765	-0.12086371
155	0xbe38eb20	-0.18058443
156	0x3d26df32	0.0407402
157	0x3e8caf53	0.27477512
158	0xbc1c927c	-0.009556409
159	0xbe6e1b6a	-0.23252645
160	0x3e9894b6	0.29800957
161	0xbd6025a9	-0.054723416
162	0x3db9f391	0.0907966
163	0x3d8aac9e	0.06771205
164	0x3e6b0bcf	0.22953723
165	0x3d1319dd	0.035913337
166	0xbe1cdccd	-0.15318604
167	0x3e42c9f4	0.19022352
168	0x3e8e29bf	0.27766225
169	0x3e172364	0.14759594
170	0x3dfdf67d	0.124005295
171	0xbb7f9faf	-0.003900509
172	0xbe051ad3	-0.12998514
173	0x3e228607	0.1587144
174	0x3d7969e8	0.060892016
175	0x3d93f365	0.07224158
176	0x3db97933	0.0905632
177	0x3e102224	0.14075524
178	0xbeb51685	-0.35368744
179	0x3c191a82	0.009344699
180	0x3d9b8d20	0.07595277
181	0x3cbbb7f5	0.022914866
182	0x3e7d7d0a	0.2475473
183	0xbe61a643	-0.2203608
184	0x3e44d7bd	0.19222923
185	0x3dbc8fbc	0.09207103
186	0xbd478e0e	-0.04871946
187	0xbd3edc57	-0.04659685
188	0x3e1de9d0	0.15421224
189	0x3de8cb0e	0.113668546
190	0xbd5cc48b	-0.053898375
191	0xbdb49d6c	-0.08819088
192	0xbd2d0a10	-0.042245924
193	0xbe10e005	-0.14147957
194	0xbcaee2a2	-0.021348301
195	0xbe3fb8fc	-0.1872291
196	0x3ddd1f5f	0.10796999
197	0xbe61d54e	-0.22054026
198	0x3e373670	0.1789186
199	0x3dc58a05	0.09645466
200	0x3ca6107d	0.020271534
201	0x3d03da68	0.03219071
202	0xbe3f8f45	-0.18706997
203	0x3baddab2	0.0053056115
204	0x3da18a93	0.07887759
205	0xbc8488fd	-0.016178602
206	0x3e3b2a44	0.18277842
207	0xbe859537	-0.26090404
208	0x3e4e8561	0.20168068
209	0x3cb45a39	0.022015678
210	0x3c948392	0.018129144
211	0xbe134b01	-0.1438408
212	0x3da7b7b4	0.081893355
213	0xbe42ba1d	-0.19016309
214	0xbeb26edc	-0.34850204
215	0xbd01c3d2	-0.03168089
216	0x3e620ae8	0.22074473
217	0xbd793aff	-0.06084728
218	0xbe3c2b2c	-0.18375844
219	0xbe3b93c8	-0.18318093
220	0x3dd3ea32	0.103474036
221	0x3e322b0b	0.17399232
222	0xbdcdc064	-0.10046461
223	0xbe2948d6	-0.16531691
224	0x3e816183	0.25269708
225	0x3dcf69e8	0.10127622
226	0x3d662132	0.056184
227	0xbe0dea20	-0.13858843
228	0x3e312bb6	0.1730183
229	0x3de7ab52	0.11311974
230	0xbe6005d2	-0.2187722
231	0x3e0c1b8c	0.13682383
232	0x3dfb2746	0.1226335
233	0x3e821e3d	0.25413695
234	0x3dc1e718	0.09467906
235	0xbdc924ed	-0.09821496
236	0xbe774606	-0.24147806
237	0x3d36c14e	0.044617943
238	0x3e99a2a1	0.30006889
239	0x3cc8d538	0.024515733
240	0x3db29d11	0.08721364
241	0x3e6c022e	0.23047706
242	0xbe6ef61e	-0.23336074
243	0x3d8a549d	0.0675442
244	0xbdae38f6	-0.08506958
245	0xbdc8544f	-0.097817056
246	0x3dc18080	0.094483376
247	0xbe0db658	-0.1383909
248	0x3e3143c6	0.1731101
249	0x3c986cd6	0.018606585
250	0xbd71db48	-0.059047014
251	0x3cdd9368	0.027047828
252	0x3dc7cc08	0.09755713
253	0x3e0d5693	0.13802557
254	0x3c88e4f9	0.016710745
255	0xbdadcd84	-0.084864646

net.4.bias f4 [64]
0	0x3e092503	0.13393025
1	0xbe5481c3	-0.20752625
2	0x3e5e0d21	0.21684696
3	0x3cc74439	0.024324523
4	0x3de8429a	0.11340828
5	0xbcf7f73d	-0.03026926
6	0x3d5d7d41	0.05407453
7	0xbe6ecc69	-0.23320164
8	0x3e120c6b	0.1426255
9	0x3dae1d05	0.08501629
10	0x3d8274c1	0.06369925
11	0xbaab87a2	-0.0013086686
12	0x3da72554	0.08161417
13	0x3e213506	0.15742883
14	0x3e0973f5	0.1342314
15	0x3e5044b1	0.20338704
16	0x3d18ff09	0.037352595
17	0x3cc1decc	0.023665808
18	0x3d4f316f	0.050584253
19	0xbe6cf4e9	-0.23140301
20	0x3d97d097	0.07412832
21	0x3e09d067	0.13458405
22	0x3d5fc0fd	0.054627407
23	0x3e4a8df4	0.19780713
24	0xbe1ba791	-0.1520064
25	0x3e364c63	0.17802577
26	0x3dfbc86e	0.12294088
27	0xbe21a963	-0.15787272
28	0xbe5b65c3	-0.21425538
29	0x3e32f15f	0.17474888
30	0xbbdb6595	-0.006695459
31	0x3dc57ee3	0.09643342
32	0x3d5f427a	0.054506756
33	0x3cef52a7	0.029214216
34	0x3e74614c	0.23865241
35	0xbe3b5d02	-0.18297198
36	0xbaed1ab8	-0.0018089628
37	0xbd61ca6a	-0.055124678
38	0x3e6ad15d	0.22931428
39	0xbd2154ea	-0.03938762
40	0xbe1e55bb	-0.15462391
41	0x3d92fbc8	0.0717693
42	0xbc0a2687	-0.008432037
43	0xbdf862a6	-0.12128191
44	0xbcb0c8ca	-0.021580119
45	0xbd8e8afc	-0.06960103
46	0x3e41f051	0.1893933
47	0xbd12ee6d	-0.03587191
48	0x3dc1d05f	0.09463572
49	0xbc8b74b4	-0.017023422
50	0xbac023cd	-0.0014659107
51	0xbca48e3f	-0.02008736
52	0xbe13a007	-0.14416514
53	0x3dcae4fe	0.09906958
54	0x3d76cd02	0.060254104
55	0x3df7dcc9	0.12102658
56	0xbd1985c4	-0.037481084
57	0xbbe2a059	-0.0069160876
58	0xbd451517	-0.048115816
59	0x3df11a1e	0.117725596
60	0xbd739706	-0.0594702
61	0xbbd10eaf	-0.0063799242
62	0xbe047733	-0.12936096
63	0x3d985f49	0.07440049

net.6.weight f4 [1, 64]
0	0x3fc373ea	1.5269749
1	0xbfd015cd	-1.6256653
2	0x3fd35ded	1.6513039
3	0x3fd86e4c	1.690866
4	0x3fc4f23e	1.5386426
5	0xbfcce1e0	-1.6006432
6	0xbfbe6a6c	-1.4876227
7	0xbfd92e91	-1.6967336
8	0x3fcd4ebf	1.6039656
9	0xbfb5b707	-1.419648
10	0x3fcd0f10	1.6020222
11	0xbfd6f069	-1.6792117
12	0x3fc3e42a	1.5304005
13	0x3fd7b0d2	1.6850836
14	0x3fd30340	1.6485367
15	0x3fd1227d	1.633865
16	0xbfd2cbfc	-1.6468501
17	0x3fc53e73	1.5409683
18	0x3fdbcedd	1.7172505
19	0xbfccbba6	-1.5994766
20	0x3fd001e0	1.6250572
21	0x3fd5e160	1.6709404
22	0x3fd44457	1.6583356
23	0x3fd377e7	1.6520966
24	0xbfd08dc6	-1.6293266
25	0x3fd73332	1.6812499
26	0x3fd3502f	1.6508845
27	0xbfdc6615	-1.7218653
28	0xbfd70440	-1.6798172
29	0x3fd1d263	1.639233
30	0xbfd72c16	-1.6810329
31	0x3fd8797b	1.6912073
32	0xbfd2c0fd	-1.6465145
33	0xbfccc55e	-1.5997732
34	0x3fce7e17	1.613223
35	0xbfd58278	-1.6680441
36	0x3fdc8380	1.7227631
37	0xbfd21402	-1.6412356
38	0x3fd1cc5f	1.6390494
39	0xbfd3d00f	-1.654787
40	0xbfc866bd	-1.5656353
41	0x3fc4c07b	1.537124
42	0xbfcedc62	-1.6161005
43	0xbfd4c974	-1.6623979
44	0x3fcb51dc	1.5884356
45	0xbfd78071	-1.6836072
46	0x3fd9e456	1.7022808
47	0xbfd32542	-1.6495745
48	0xbfc9a880	-1.5754547
49	0xbfaa8403	-1.3321537
50	0x3fd4f1fc	1.6636348
51	0xbfd4c739	-1.6623298
52	0xbfd175f6	-1.6364124
53	0xbfccfed9	-1.6015273
54	0x3fc3525a	1.5259507
55	0x3fd3f925	1.6560408
56	0xbfd0d6ea	-1.6315587
57	0x3fc9dfd7	1.5771435
58	0xbfd77ba2	-1.6834605
59	0x3fcbe4b4	1.592917
60	0x3fd23ce1	1.6424829
61	0xbfc22dce	-1.5170228
62	0xbfd2dab0	-1.6472988
63	0xbfc642e3	-1.5489162
